…
(1404, 28)
(147,)
(1590, 28)
(196,)
(1390, 28)
(179,)
(1467, 28)
(183,)
Batch size:  21
Train dataset samples = 28539, batches = 1359
Val dataset samples = 2703, batches = 129
Test dataset samples = 2620, batches = 125
torch.Size([21, 1607, 28]) torch.Size([21, 199]) torch.Size([21]) torch.Size([21])
torch.Size([21, 1607, 28]) torch.Size([21])
ASRModel(
  (augmentations): Sequential(
    (0): PermuteBlock()
    (1): FrequencyMasking()
    (2): TimeMasking()
    (3): PermuteBlock()
  )
  (encoder): Encoder(
    (embedding): Sequential(
      (0): PermuteBlock()
      (1): ResNet34(
        (embedding): Conv1d(28, 192, kernel_size=(7,), stride=(1,), padding=(3,))
        (bn1): BatchNorm1d(192, eps=1e-05, momentum=0.1, affine=True, track_running_stats=True)
        (relu): ReLU()
        (layer1): Sequential(
          (0): IdentityBlock1D(
            (conv1): Conv1d(192, 192, kernel_size=(3,), stride=(1,), padding=(1,))
            (bn1): BatchNorm1d(192, eps=1e-05, momentum=0.1, affine=True, track_running_stats=True)
            (conv2): Conv1d(192, 192, kernel_size=(3,), stride=(1,), padding=(1,))
            (bn2): BatchNorm1d(192, eps=1e-05, momentum=0.1, affine=True, track_running_stats=True)
            (se): SEBlock1D(
              (avg_pool): AdaptiveAvgPool1d(output_size=1)
              (fc1): Linear(in_features=192, out_features=12, bias=True)
              (relu): ReLU()
              (fc2): Linear(in_features=12, out_features=192, bias=True)
              (sigmoid): Sigmoid()
            )
            (relu): ReLU()
          )
          (1): IdentityBlock1D(
            (conv1): Conv1d(192, 192, kernel_size=(3,), stride=(1,), padding=(1,))
            (bn1): BatchNorm1d(192, eps=1e-05, momentum=0.1, affine=True, track_running_stats=True)
            (conv2): Conv1d(192, 192, kernel_size=(3,), stride=(1,), padding=(1,))
            (bn2): BatchNorm1d(192, eps=1e-05, momentum=0.1, affine=True, track_running_stats=True)
            (se): SEBlock1D(
              (avg_pool): AdaptiveAvgPool1d(output_size=1)
              (fc1): Linear(in_features=192, out_features=12, bias=True)
              (relu): ReLU()
              (fc2): Linear(in_features=12, out_features=192, bias=True)
              (sigmoid): Sigmoid()
            )
            (relu): ReLU()
          )
          (2): IdentityBlock1D(
            (conv1): Conv1d(192, 192, kernel_size=(3,), stride=(1,), padding=(1,))
            (bn1): BatchNorm1d(192, eps=1e-05, momentum=0.1, affine=True, track_running_stats=True)
            (conv2): Conv1d(192, 192, kernel_size=(3,), stride=(1,), padding=(1,))
            (bn2): BatchNorm1d(192, eps=1e-05, momentum=0.1, affine=True, track_running_stats=True)
            (se): SEBlock1D(
              (avg_pool): AdaptiveAvgPool1d(output_size=1)
              (fc1): Linear(in_features=192, out_features=12, bias=True)
              (relu): ReLU()
              (fc2): Linear(in_features=12, out_features=192, bias=True)
              (sigmoid): Sigmoid()
            )
            (relu): ReLU()
          )
        )
        (layer2): Sequential(
          (0): IdentityBlock1D(
            (conv1): Conv1d(192, 384, kernel_size=(3,), stride=(1,), padding=(1,))
            (bn1): BatchNorm1d(384, eps=1e-05, momentum=0.1, affine=True, track_running_stats=True)
            (conv2): Conv1d(384, 384, kernel_size=(3,), stride=(1,), padding=(1,))
            (bn2): BatchNorm1d(384, eps=1e-05, momentum=0.1, affine=True, track_running_stats=True)
            (se): SEBlock1D(
              (avg_pool): AdaptiveAvgPool1d(output_size=1)
              (fc1): Linear(in_features=384, out_features=24, bias=True)
              (relu): ReLU()
              (fc2): Linear(in_features=24, out_features=384, bias=True)
              (sigmoid): Sigmoid()
            )
            (relu): ReLU()
            (adjust_channels): Conv1d(192, 384, kernel_size=(1,), stride=(1,))
          )
          (1): IdentityBlock1D(
            (conv1): Conv1d(384, 384, kernel_size=(3,), stride=(1,), padding=(1,))
            (bn1): BatchNorm1d(384, eps=1e-05, momentum=0.1, affine=True, track_running_stats=True)
            (conv2): Conv1d(384, 384, kernel_size=(3,), stride=(1,), padding=(1,))
            (bn2): BatchNorm1d(384, eps=1e-05, momentum=0.1, affine=True, track_running_stats=True)
            (se): SEBlock1D(
              (avg_pool): AdaptiveAvgPool1d(output_size=1)
              (fc1): Linear(in_features=384, out_features=24, bias=True)
              (relu): ReLU()
              (fc2): Linear(in_features=24, out_features=384, bias=True)
              (sigmoid): Sigmoid()
            )
            (relu): ReLU()
          )
          (2): IdentityBlock1D(
            (conv1): Conv1d(384, 384, kernel_size=(3,), stride=(1,), padding=(1,))
            (bn1): BatchNorm1d(384, eps=1e-05, momentum=0.1, affine=True, track_running_stats=True)
            (conv2): Conv1d(384, 384, kernel_size=(3,), stride=(1,), padding=(1,))
            (bn2): BatchNorm1d(384, eps=1e-05, momentum=0.1, affine=True, track_running_stats=True)
            (se): SEBlock1D(
              (avg_pool): AdaptiveAvgPool1d(output_size=1)
              (fc1): Linear(in_features=384, out_features=24, bias=True)
              (relu): ReLU()
              (fc2): Linear(in_features=24, out_features=384, bias=True)
              (sigmoid): Sigmoid()
            )
            (relu): ReLU()
          )
          (3): IdentityBlock1D(
            (conv1): Conv1d(384, 384, kernel_size=(3,), stride=(1,), padding=(1,))
            (bn1): BatchNorm1d(384, eps=1e-05, momentum=0.1, affine=True, track_running_stats=True)
            (conv2): Conv1d(384, 384, kernel_size=(3,), stride=(1,), padding=(1,))
            (bn2): BatchNorm1d(384, eps=1e-05, momentum=0.1, affine=True, track_running_stats=True)
            (se): SEBlock1D(
              (avg_pool): AdaptiveAvgPool1d(output_size=1)
              (fc1): Linear(in_features=384, out_features=24, bias=True)
              (relu): ReLU()
              (fc2): Linear(in_features=24, out_features=384, bias=True)
              (sigmoid): Sigmoid()
            )
            (relu): ReLU()
          )
        )
        (layer3): Sequential(
          (0): IdentityBlock1D(
            (conv1): Conv1d(384, 768, kernel_size=(3,), stride=(1,), padding=(1,))
            (bn1): BatchNorm1d(768, eps=1e-05, momentum=0.1, affine=True, track_running_stats=True)
            (conv2): Conv1d(768, 768, kernel_size=(3,), stride=(1,), padding=(1,))
            (bn2): BatchNorm1d(768, eps=1e-05, momentum=0.1, affine=True, track_running_stats=True)
            (se): SEBlock1D(
              (avg_pool): AdaptiveAvgPool1d(output_size=1)
              (fc1): Linear(in_features=768, out_features=48, bias=True)
              (relu): ReLU()
              (fc2): Linear(in_features=48, out_features=768, bias=True)
              (sigmoid): Sigmoid()
            )
            (relu): ReLU()
            (adjust_channels): Conv1d(384, 768, kernel_size=(1,), stride=(1,))
          )
          (1): IdentityBlock1D(
            (conv1): Conv1d(768, 768, kernel_size=(3,), stride=(1,), padding=(1,))
            (bn1): BatchNorm1d(768, eps=1e-05, momentum=0.1, affine=True, track_running_stats=True)
            (conv2): Conv1d(768, 768, kernel_size=(3,), stride=(1,), padding=(1,))
            (bn2): BatchNorm1d(768, eps=1e-05, momentum=0.1, affine=True, track_running_stats=True)
            (se): SEBlock1D(
              (avg_pool): AdaptiveAvgPool1d(output_size=1)
              (fc1): Linear(in_features=768, out_features=48, bias=True)
              (relu): ReLU()
              (fc2): Linear(in_features=48, out_features=768, bias=True)
              (sigmoid): Sigmoid()
            )
            (relu): ReLU()
          )
          (2): IdentityBlock1D(
            (conv1): Conv1d(768, 768, kernel_size=(3,), stride=(1,), padding=(1,))
            (bn1): BatchNorm1d(768, eps=1e-05, momentum=0.1, affine=True, track_running_stats=True)
            (conv2): Conv1d(768, 768, kernel_size=(3,), stride=(1,), padding=(1,))
            (bn2): BatchNorm1d(768, eps=1e-05, momentum=0.1, affine=True, track_running_stats=True)
            (se): SEBlock1D(
              (avg_pool): AdaptiveAvgPool1d(output_size=1)
              (fc1): Linear(in_features=768, out_features=48, bias=True)
              (relu): ReLU()
              (fc2): Linear(in_features=48, out_features=768, bias=True)
              (sigmoid): Sigmoid()
            )
            (relu): ReLU()
          )
          (3): IdentityBlock1D(
            (conv1): Conv1d(768, 768, kernel_size=(3,), stride=(1,), padding=(1,))
            (bn1): BatchNorm1d(768, eps=1e-05, momentum=0.1, affine=True, track_running_stats=True)
            (conv2): Conv1d(768, 768, kernel_size=(3,), stride=(1,), padding=(1,))
            (bn2): BatchNorm1d(768, eps=1e-05, momentum=0.1, affine=True, track_running_stats=True)
            (se): SEBlock1D(
              (avg_pool): AdaptiveAvgPool1d(output_size=1)
              (fc1): Linear(in_features=768, out_features=48, bias=True)
              (relu): ReLU()
              (fc2): Linear(in_features=48, out_features=768, bias=True)
              (sigmoid): Sigmoid()
            )
            (relu): ReLU()
          )
          (4): IdentityBlock1D(
            (conv1): Conv1d(768, 768, kernel_size=(3,), stride=(1,), padding=(1,))
            (bn1): BatchNorm1d(768, eps=1e-05, momentum=0.1, affine=True, track_running_stats=True)
            (conv2): Conv1d(768, 768, kernel_size=(3,), stride=(1,), padding=(1,))
            (bn2): BatchNorm1d(768, eps=1e-05, momentum=0.1, affine=True, track_running_stats=True)
            (se): SEBlock1D(
              (avg_pool): AdaptiveAvgPool1d(output_size=1)
              (fc1): Linear(in_features=768, out_features=48, bias=True)
              (relu): ReLU()
              (fc2): Linear(in_features=48, out_features=768, bias=True)
              (sigmoid): Sigmoid()
            )
            (relu): ReLU()
          )
          (5): IdentityBlock1D(
            (conv1): Conv1d(768, 768, kernel_size=(3,), stride=(1,), padding=(1,))
            (bn1): BatchNorm1d(768, eps=1e-05, momentum=0.1, affine=True, track_running_stats=True)
            (conv2): Conv1d(768, 768, kernel_size=(3,), stride=(1,), padding=(1,))
            (bn2): BatchNorm1d(768, eps=1e-05, momentum=0.1, affine=True, track_running_stats=True)
            (se): SEBlock1D(
              (avg_pool): AdaptiveAvgPool1d(output_size=1)
              (fc1): Linear(in_features=768, out_features=48, bias=True)
              (relu): ReLU()
              (fc2): Linear(in_features=48, out_features=768, bias=True)
              (sigmoid): Sigmoid()
            )
            (relu): ReLU()
          )
        )
        (layer4): Sequential(
          (0): IdentityBlock1D(
            (conv1): Conv1d(768, 856, kernel_size=(3,), stride=(1,), padding=(1,))
            (bn1): BatchNorm1d(856, eps=1e-05, momentum=0.1, affine=True, track_running_stats=True)
            (conv2): Conv1d(856, 856, kernel_size=(3,), stride=(1,), padding=(1,))
            (bn2): BatchNorm1d(856, eps=1e-05, momentum=0.1, affine=True, track_running_stats=True)
            (se): SEBlock1D(
              (avg_pool): AdaptiveAvgPool1d(output_size=1)
              (fc1): Linear(in_features=856, out_features=53, bias=True)
              (relu): ReLU()
              (fc2): Linear(in_features=53, out_features=856, bias=True)
              (sigmoid): Sigmoid()
            )
            (relu): ReLU()
            (adjust_channels): Conv1d(768, 856, kernel_size=(1,), stride=(1,))
          )
          (1): IdentityBlock1D(
            (conv1): Conv1d(856, 856, kernel_size=(3,), stride=(1,), padding=(1,))
            (bn1): BatchNorm1d(856, eps=1e-05, momentum=0.1, affine=True, track_running_stats=True)
            (conv2): Conv1d(856, 856, kernel_size=(3,), stride=(1,), padding=(1,))
            (bn2): BatchNorm1d(856, eps=1e-05, momentum=0.1, affine=True, track_running_stats=True)
            (se): SEBlock1D(
              (avg_pool): AdaptiveAvgPool1d(output_size=1)
              (fc1): Linear(in_features=856, out_features=53, bias=True)
              (relu): ReLU()
              (fc2): Linear(in_features=53, out_features=856, bias=True)
              (sigmoid): Sigmoid()
            )
            (relu): ReLU()
          )
          (2): IdentityBlock1D(
            (conv1): Conv1d(856, 856, kernel_size=(3,), stride=(1,), padding=(1,))
            (bn1): BatchNorm1d(856, eps=1e-05, momentum=0.1, affine=True, track_running_stats=True)
            (conv2): Conv1d(856, 856, kernel_size=(3,), stride=(1,), padding=(1,))
            (bn2): BatchNorm1d(856, eps=1e-05, momentum=0.1, affine=True, track_running_stats=True)
            (se): SEBlock1D(
              (avg_pool): AdaptiveAvgPool1d(output_size=1)
              (fc1): Linear(in_features=856, out_features=53, bias=True)
              (relu): ReLU()
              (fc2): Linear(in_features=53, out_features=856, bias=True)
              (sigmoid): Sigmoid()
            )
            (relu): ReLU()
          )
        )
      )
      (2): PermuteBlock()
    )
    (pBLSTMs): Sequential(
      (0): pBLSTM(
        (blstm): LSTM(856, 856, batch_first=True, bidirectional=True)
      )
      (1): pBLSTM(
        (blstm): LSTM(3424, 856, batch_first=True, bidirectional=True)
      )
    )
  )
  (decoder): Decoder(
    (mlp): Sequential(
      (0): PermuteBlock()
      (1): BatchNorm1d(3424, eps=1e-05, momentum=0.1, affine=True, track_running_stats=True)
      (2): PermuteBlock()
      (3): Linear(in_features=3424, out_features=384, bias=True)
      (4): ReLU()
      (5): Linear(in_features=384, out_features=128, bias=True)
      (6): ReLU()
      (7): Linear(in_features=128, out_features=41, bias=True)
    )
    (softmax): LogSoftmax(dim=2)
  )
)
